ckpt/fecg/current_w.pth (torch, 606171 bytes, 36 tensors)

attention.CSA.gcn_channel.gc1.weight f4 [64, 8]
-0.18514676 -0.19327739 0.21393293 -0.23238273 -0.16526325 0.19179532 -0.26329747 0.17337336
0.2165758 0.09773947 0.065262415 0.13778298 0.26839587 0.02756781 -0.25404307 0.32565627
0.2586923 -0.008205489 -0.20690769 -0.13734716 -0.31207654 0.23365466 -0.029347619 0.24322107
0.13332808 -0.06902319 -0.2253871 0.12340118 -0.22612612 -0.0797814 0.21180929 -0.19315323
-0.015629722 -0.04663688 0.041911077 0.3409078 0.2072177 -0.13410088 0.31337386 -0.11557631
0.14359412 0.14504962 -0.012312458 -0.3299032 0.33144066 -0.080243096 0.24018475 -0.21154113
-0.036338396 0.30211967 -0.30717432 0.013592419 -0.005414352 -0.3010948 -0.06989917 -0.32353097
0.07616743 0.060284015 0.20248884 0.008470769 -0.14164273 -0.12845784 -0.13028076 0.2743959
0.11178487 -0.35261568 0.06185438 -0.047989145 0.2567946 -0.10201294 0.30776244 0.10962213
-0.319745 0.07366965 -0.08000339 0.17777131 -0.3034267 -0.024604851 0.23362997 0.12567657
0.16657196 0.29871243 0.14555891 0.1159954 0.07359428 0.023796959 0.30757663 -0.080905
0.046036456 0.003851171 -0.097775705 0.2583316 0.019522795 -0.3001495 0.23961852 -0.1168357
0.033524543 -0.32098004 0.13909411 -0.24324024 -0.041332938 0.30504397 0.08336296 0.29512876
-0.19164775 -0.3295785 -0.28290996 -0.121164784 -0.10945157 -0.023605902 0.20193611 0.30898276
-0.3478343 -0.20552886 0.302566 -0.060018517 -0.100849554 -0.3464925 -0.05852594 -0.3138672
0.29776943 -0.16306 -0.11065072 0.06482602 0.15959094 0.31013075 -0.05971377 -0.26351207
0.30930543 -0.07437075 0.12840386 -0.26864773 -0.22714558 -0.026941957 -0.11751143 0.011889278
0.13222551 0.033808235 -0.15280454 -0.0077532413 0.27321795 0.31075045 0.29470554 0.23441751
0.1929048 0.35001844 -0.32978263 -0.31026477 0.21130243 0.34049454 -0.24964659 0.15834552
-0.18252972 -0.06409895 0.33617473 -0.20731874 0.17086652 0.2584332 0.1721512 -0.24119464
0.10789306 -0.32019988 -0.1818184 -0.20507868 0.24032491 0.083597794 0.34012473 0.22904731
-0.10857883 0.3403859 -0.23715587 -0.11029167 -0.092782795 0.14191341 -0.15133883 -0.2807822
0.21713294 0.29124302 0.2161038 0.20054536 -0.112660125 -0.12076172 -0.31112972 0.008429791
0.2266543 0.18251123 0.30209988 -0.27515087 -0.31041878 0.16649212 0.34436333 -0.11885797
0.06519563 0.1019596 0.18601862 0.053661607 -0.30311254 -0.06280697 0.18259381 -0.016865898
-0.2556057 -0.22264828 -0.11533153 0.26581475 0.05732882 0.2647782 0.034067165 0.21754666
0.03241608 0.24075107 0.30450588 -0.29675964 -0.26140392 -0.13042234 -0.0094356835 -0.11271955
-0.30525485 0.0027942308 0.23059906 -0.2835812 0.079693794 -0.22699676 0.17504866 -0.05086614
0.25222477 0.18157089 -0.25521246 0.29565954 -0.3163412 -0.032312352 0.18830661 0.13291298
-0.27354014 0.029445851 -0.13750538 -0.088311404 -0.29783463 0.11089892 0.28409678 0.15226077
0.12501878 -0.22137557 -0.20845567 0.03449523 0.123256765 -0.21750382 -0.33478713 -0.017311439
-0.08667325 0.12957099 0.0183524 -0.22451574 -0.096026614 -0.08160208 -0.31496403 0.19822365
00000000: 1d97 3dbe 82ea 45be 3c11 5b3e bdf5 6dbe
00000010: c53a 29be fe65 443e edce 86be c988 313e
00000020: 0cc6 5d3e a22b c83d 4da8 853d fb16 0d3e
00000030: 2f6b 893e e3d5 e13c ef11 82be 6bbc a63e
00000040: 5173 843e 5170 06bc 9cdf 53be bca4 0cbe
00000050: 7fc8 9fbe 2b43 6f3e 6b6a f0bc f20e 793e
00000060: 2887 083e 085c 8dbd e0cb 66be c2b9 fc3d
00000070: 9b8d 67be 6e64 a3bd 89e4 583e f6c9 45be
00000080: e709 80bc 5006 3fbd f3aa 2b3d 788b ae3e
00000090: e030 543e be51 09be 8a72 a03e 46b3 ecbd
000000a0: 560a 133e e387 143e 31ba 49bc 12e9 a8be
000000b0: 97b2 a93e 7e56 a4bd fef2 753e 3d9e 58be
000000c0: 92d7 14bd 6eaf 9a3e f445 9dbe bdb2 5e3c
000000d0: e06a b1bb 1929 9abe 4c27 8fbd daa5 a5be
000000e0: abfd 9b3d 5fec 763d 3c59 4f3e fbc8 0a3c
000000f0: cb0a 11be 748a 03be 5268 05be 9f7d 8c3e
00000100: 77ef e43d 0b8a b4be 055b 7d3d 4490 44bd
00000110: 957a 833e 29ec d0bd 0a93 9d3e 9181 e03d
00000120: 9eb5 a3be 1de0 963d d1d8 a3bd af09 363e
00000130: bf5a 9bbe 1d90 c9bc b23c 6f3e 5cb1 003e
00000140: d791 2a3e d6f0 983e 650d 153e ff8e ed3d
00000150: 99b8 963d d7f1 c23c af7a 9d3e 85b1 a5bd
00000160: b990 3c3d ed63 7c3b a13e c8bd 0a44 843e
00000170: 45ee 9f3c 32ad 99be 8f5e 753e 8e47 efbd
00000180: 0851 093d 7f57 a4be b06e 0e3e f813 79be
00000190: ba4c 29bd b92e 9c3e 33ba aa3d 1e1b 973e
000001a0: 4f3f 44be 83be a8be 93d9 90be 3e25 f8bd
000001b0: 2528 e0bd 2a61 c1bc 57c8 4e3e fd32 9e3e
000001c0: 5617 b2be 2876 52be eee9 9a3e fad5 75bd
000001d0: 368a cebd 7767 b1be e5b8 6fbd 34b3 a0be
000001e0: 3c75 983e 33f9 26be d89c e2bd 81c3 843d
000001f0: cf6b 233e 75c9 9e3e 6d96 74bd 0eeb 86be
00000200: 485d 9e3e b14f 98bd 4d7c 033e 328c 89be
00000210: da98 68be 61b5 dcbc d5a9 f0bd 3fcb 423c
00000220: 2066 073e 817a 0a3d cb78 1cbe e70e febb
00000230: 39e3 8b3e af1a 9f3e a5e3 963e 250b 703e
00000240: d688 453e 9e35 b33e 45d9 a8be 06db 9ebe
00000250: aa5f 583e 4d55 ae3e 5ba3 7fbe 5425 223e
00000260: 12e9 3abe 4f46 83bd 181f ac3e 5d4b 54be
00000270: a2f7 2e3e 5b51 843e 6748 303e bafb 76be
00000280: 09f7 dc3d 3df1 a3be 9a2e 3abe 2500 52be
00000290: bc17 763e 5235 ab3d d424 ae3e 618b 6a3e
000002a0: 945e debd 1047 ae3e fdd8 72be 99e0 e1bd
000002b0: e804 bebd c051 113e 91f8 1abe afc2 8fbe
000002c0: 1958 5e3e ce1d 953e 514a 5d3e c35b 4d3e
000002d0: 5aba e6bd ec51 f7bd 654c 9fbe 1b1d 0a3c
000002e0: 1118 683e 39e4 3a3e d6ac 9a3e 93e0 8cbe
000002f0: 36ef 9ebe e97c 2a3e 6450 b03e cf6b f3bd
00000300: 4985 853d 32d0 d03d aa7b 3e3e 46cc 5b3d
00000310: 9131 9bbe f1a0 80bd dff9 3a3e 5a2a 8abc
00000320: c0de 82be e9fd 63be f032 ecbd df18 883e
00000330: a0d1 6a3d 0291 873e 038a 0b3d 8dc4 5e3e
00000340: b9c6 043d 7387 763e 32e8 9b3e e1f0 97be
00000350: bcd6 85be 6f8d 05be 2098 1abc 82d9 e6bd
00000360: 5d4a 9cbe 6a1f 373b 2922 6c3e 8e31 91be
00000370: 8036 a33d d771 68be f53f 333e 0359 50bd
00000380: 9b23 813e b8ed 393e 35ab 82be b060 973e
00000390: 79f7 a1be f559 04bd 73d3 403e 571a 083e
000003a0: 740d 8cbe 6d38 f13c 36ce 0cbe 9cdc b4bd
000003b0: c87d 98be f91e e33d 2275 913e 3fea 1b3e
000003c0: ec04 003e 47b0 62be 6775 55be df4a 0d3d
000003d0: 0b6e fc3d 52b9 5ebe 3869 abbe b8d0 8dbc
000003e0: bf81 b1bd 42ae 043e c657 963c 74e7 65be
000003f0: 9aa9 c4bd fe1e a7bd f742 a1be 24fb 4a3e

attention.CSA.gcn_channel.gc1.bias f4 [8]
-0.109031886 0.18639693 0.30604243 0.001406311 0.07248024 -0.2677821 0.013598836 0.038471654
00000000: 1c4c dfbd d6de 3e3e 98b1 9c3e f853 b83a
00000010: 8570 943d bc1a 89be a7cd 5e3c 7494 1d3d

attention.CSA.gcn_channel.gc2.weight f4 [8, 64]
-0.020263685 0.029603425 -0.0018399182 0.0040473253 0.10202078 -0.038504407 -0.096161716 -0.033618987
-0.09232119 -0.056508515 0.07368387 0.08918314 0.0047739404 -0.036218032 -0.04598353 -0.08805075
0.0668282 0.061472654 -0.0066226353 -0.10206565 0.029991126 -0.09490105 -0.007959649 -0.0015794883
0.014743716 -0.060108464 -0.12281793 -0.053374156 0.028499113 0.10837037 0.05025014 -0.07335592
0.08272011 0.02563321 -0.08805358 -0.028887428 -0.0739517 0.047340505 0.07623059 0.079567865
-0.10756841 0.082743354 0.06756224 0.045710124 -0.1221179 -0.026464092 -0.047265653 -0.04588632
0.002321138 -0.07297286 -0.012129226 0.01648049 0.031827893 -0.07398727 0.108428076 0.02873174
-0.1243725 0.03652582 0.11941645 -0.1199316 0.079148 0.11238666 -0.107221715 0.028546091
-0.09811958 -0.09996045 0.026005225 0.08544614 0.041158736 -0.11551111 0.018679332 -0.105104916
-0.004892269 -0.09631956 -0.031095505 0.010487745 0.057776738 -0.019209007 0.03659207 -0.09358802
-0.031339806 -0.09304027 -0.00043859798 0.017369092 0.047705278 0.10105931 0.0946003 -0.09858198
-0.00579835 -0.022416105 0.047543965 -0.123356216 0.1105319 0.017940694 -0.053066377 -0.026567409
-0.022373287 -0.106250055 0.06759969 -0.08684212 0.062450826 0.058267113 -0.10809589 0.04010563
-0.059215 0.10227531 0.12377413 -0.04557653 0.014490246 -0.08744746 -0.022218503 -0.017282229
0.05997081 -0.101003245 -0.07960619 0.053882107 -0.07348551 0.08864963 0.008822839 0.05907503
-0.12069309 0.103829086 -0.041727163 -0.01867816 -0.083595194 0.046316467 0.073397696 0.05632285
-0.07806146 0.017199341 -0.08003771 -0.009296267 -0.057958525 0.0990866 -0.01642891 -0.08564189
0.00033350298 -0.001283975 -0.059671946 -0.0066733067 -0.038473435 -0.010295699 -0.006886143 0.06785797
-0.041343946 0.10473953 0.023484299 -0.102008715 -0.06902367 -0.0005781079 0.100329764 0.106027566
0.078501195 0.071138926 -0.029748721 -0.0010018492 0.04500472 0.11343646 0.08345112 0.07743742
0.06285249 0.025876498 -0.024165679 -0.038721908 -0.08059792 -0.08054286 0.10201201 0.099922225
-0.057940613 0.026811115 -0.02117876 -0.037112433 0.0027245986 -0.08093966 -0.017826064 0.038729947
-0.10090642 -0.028806172 0.073754795 0.041655205 0.029917235 -0.0066792774 0.098622695 0.04288726
-0.0192023 -0.056657467 -0.016738016 -0.10159266 -0.10128305 0.116904184 0.105830126 -0.06948631
-0.018248692 0.029422583 -0.026301723 0.034887645 -0.11837574 0.034464225 0.119350605 0.019619023
0.09287818 0.012260789 -0.11116921 0.045885697 -0.023961991 0.121480316 0.121661685 -0.023557018
-0.12279525 -0.037950482 0.06969497 0.012697686 0.030925827 0.12290282 -0.1006504 -0.086828835
6.713434e-05 0.0649711 -0.11095093 -0.0527459 -0.116765894 -0.09526088 0.023760544 -0.10708102
-0.014850721 -0.053786572 0.11356632 0.047765907 0.043797508 0.022981912 -0.07000818 0.08441673
0.10112222 0.032866005 -0.109954074 0.09229918 -0.0011659095 0.055705108 0.079964146 -0.069888584
-0.11150524 -0.11131595 0.10375332 0.1151087 0.019364325 0.0999994 0.098110296 -0.031253424
-0.0119991535 -0.026928524 0.12365129 0.07462772 0.011847925 -0.035339333 0.04021787 0.12454677
00000000: 0700 a6bc e282 f23c 6929 f1ba 6d9f 843b
00000010: 45f0 d03d ccb6 1dbd 6ff0 c4bd 10b4 09bd
00000020: e412 bdbd 7975 67bd 92e7 963d a6a5 b63d
00000030: b76e 9c3b 5c59 14bd 3a59 3cbd f453 b4bd
00000040: 39dd 883d c0ca 7b3d b102 d9bb cc07 d1bd
00000050: f3af f53c 7b5b c2bd 3069 02bc d506 cfba
00000060: a18f 713c 4b34 76bd f887 fbbd dc9e 5abd
00000070: f976 e93c 49f1 dd3d 17d3 4d3d a13b 96bd
00000080: 2969 a93d bdfc d13c 6f55 b4bd 54a5 ecbc
00000090: fd73 97bd 1ee8 413d c91e 9c3d 7af4 a23d
000000a0: d44c dcbd 5975 a93d 125e 8a3d 8a3a 3b3d
000000b0: f318 fabd 39cb d8bc a199 41bd 4bf3 3bbd
000000c0: 3c1e 183b cb72 95bd a9b9 46bc 1802 873c
000000d0: f75d 023d a386 97bd 8a0f de3d d35e eb3c
000000e0: 02b7 febd 199c 153d 9d90 f43d b39e f5bd
000000f0: 5918 a23d fa2a e63d 0f97 dbbd 7ed9 e93c
00000100: ebf2 c8bd 10b8 ccbd e908 d53c 63fe ae3d
00000110: 1096 283d 1791 ecbd 6605 993c 3f41 d7bd
00000120: 544f a0bb 3143 c5bd 00bc febc cad4 2b3c
00000130: 4da7 6c3d 355c 9dbc 91e1 153d 13ab bfbd
00000140: 2b5e 00bd e68b bebd a0f3 e5b9 a049 8e3c
00000150: 9c66 433d 2ff8 ce3d cdbd c13d 59e5 c9bd
00000160: 1600 bebb fba1 b7bc 76bd 423d 2fa2 fcbd
00000170: 8c5e e23d 5df8 923c 215c 59bd e5a3 d9bc
00000180: 2f48 b7bc a199 d9bd b571 8a3d 48da b1bd
00000190: 70cc 7f3d 7fa9 6e3d 6161 ddbd cd45 243d
000001a0: 6e8b 72bd b875 d13d 4b7d fd3d 75ae 3abd
000001b0: 7f68 6d3c a717 b3bd 9403 b6bc 7693 8dbc
000001c0: f4a3 753d cada cebd 9208 a3bd 7cb3 5c3d
000001d0: 927f 96bd f08d b53d ab8d 103c a9f8 713d
000001e0: f02d f7bd 58a4 d43d 1aea 2abd f102 99bc
000001f0: f533 abbd 56b6 3d3d 8851 963d cab2 663d
00000200: b0de 9fbd a2e5 8c3c d0ea a3bd 5f4f 18bc
00000210: eb65 6dbd eaed ca3d ec95 86bc 0465 afbd
00000220: 03da ae39 0d4b a8ba 926a 74bd c1ab dabb
00000230: 5296 1dbd 4baf 28bc 27a5 e1bb 1ff9 8a3d
00000240: 4558 29bd ae81 d63d 2562 c03c f2e9 d0bd
00000250: 485c 8dbd 2a8c 17ba b179 cd3d fb24 d93d
00000260: 3cc5 a03d 49b1 913d 97b3 f3bc 7b50 83ba
00000270: df56 383d 6051 e83d 6ce8 aa3d 8397 9e3d
00000280: ceb8 803d f3fa d33c 1af7 c5bc dd9a 1ebd
00000290: 8610 a5bd a8f3 a4bd aceb d03d 06a4 cc3d
000002a0: 2353 6dbd fca2 db3c 147f adbc 3503 18bd
000002b0: 2e8f 323b b1c3 a5bd f707 92bc 4ba3 1e3d
000002c0: 06a8 cebd ecfa ebbc c10c 973d a69e 2a3d
000002d0: fd14 f53c d7dd dabb b2fa c93d 8daa 2f3d
000002e0: 244e 9dbc a911 68bd 2a1e 89bc d00f d0bd
000002f0: 7d6d cfbd 766b ef3d 77bd d83d d74e 8ebd
00000300: 487e 95bc a107 f13c b676 d7bc 59e6 0e3d
00000310: fb6e f2bd 5c2a 0d3d 176e f43d 13b8 a03c
00000320: ea36 be3d 7ae1 483c afac e3bd a4f2 3b3d
00000330: f04b c4bc acca f83d c329 f93d a6fa c0bc
00000340: 137c fbbd f771 1bbd 3dbc 8e3d f509 503c
00000350: 2958 fd3c 79b4 fb3d cc21 cebd 51d3 b1bd
00000360: 79ca 8c38 910f 853d 3e3a e3bd 160c 58bd
00000370: f522 efbd 2318 c3bd 79a5 c23c 4b4d dbbd
00000380: 7050 73bc 4f4f 5cbd 7595 e83d 2fa6 433d
00000390: 0465 333d 9044 bc3c 7360 8fbd aee2 ac3d
000003a0: 2b19 cf3d 819e 063d 9a2f e1bd 5a07 bd3d
000003b0: 6ed1 98ba 0a2b 643d 3ec4 a33d bf21 8fbd
000003c0: dc5c e4bd 9ef9 e3bd 9f7c d43d 1cbe eb3d
000003d0: efa1 9e3c 7ccc cc3d 0dee c83d 9703 00bd
000003e0: 1998 44bc 3599 dcbc e33c fd3d 6bd6 983d
000003f0: cd1d 423c fabf 10bd 7ebb 243d 6012 ff3d

attention.CSA.gcn_channel.gc2.bias f4 [64]
0.064164855 0.08634452 0.046657532 0.09987033 0.004313692 -0.060186867 0.071851164 -0.05193813
0.03859453 -0.05317795 0.054740984 0.0609612 -0.018622074 0.07100453 0.012121203 -0.089316964
0.02789915 0.05821507 0.04844885 -0.116808765 -0.07480145 0.056105904 0.10789255 -0.069648616
0.11889552 -0.11044281 0.09919041 0.02985481 0.046888985 0.053470887 0.054685228 0.041634213
0.050829973 -0.04553167 -0.045434874 0.07776161 0.06371078 -0.018216398 -0.075180344 -0.038486097
0.022641648 0.010734421 -0.029404355 -0.05258834 0.035078395 -0.10117652 -0.014165106 0.009881665
-0.07822002 0.042118326 -0.04814228 -0.043939516 0.012269877 -0.100629225 0.11071525 0.093377806
-0.07417331 -0.10407945 0.09190533 0.0196296 0.027987637 -0.11276423 0.11563359 -0.023757784
00000000: dd68 833d 65d5 b03d f81b 3f3d d188 cc3d
00000010: df59 8d3b 8186 76bd b426 933d 14bd 54bd
00000020: 4c15 1e3d 1fd1 59bd 1538 603d 74b2 793d
00000030: 528d 98bc d36a 913d 0398 463c d0eb b6bd
00000040: c28c e43c ed72 6e3d 4d72 463d 6f39 efbd
00000050: 8131 99bd 4ecf 653d c5f6 dc3d efa3 8ebd
00000060: 7f7f f33d d72f e2bd 5724 cb3d 1392 f43c
00000070: aa0e 403d 4a04 5b3d 9efd 5f3d a388 2a3d
00000080: 1733 503d 6b7f 3abd eb19 3abd 7b41 9f3d
00000090: cc7a 823d 8e3a 95bc 27f8 99bd 99a3 1dbd
000000a0: fa7a b93c 6ddf 2f3c 67e1 f0bc df66 57bd
000000b0: 5dae 0f3d a335 cfbd c314 68bc b5e6 213c
000000c0: d131 a0bd 4484 2c3d d730 45bd ecf9 33bd
000000d0: 9807 493c b216 cebd adbe e23d dd3c bf3d
000000e0: 2de8 97bd 9b27 d5bd dd38 bc3d 41ce a03c
000000f0: 5446 e53c eff0 e6bd 4ed1 ec3d af9f c2bc

attention.SSA.query_conv.weight f4 [64, 64, 1]
0.047531933 0.20089713 0.26747033 -0.09472954 0.07203826 0.22764108 0.30680713 -0.2924087
-0.09648895 0.14858344 0.00672305 -0.27203763 -0.34633008 -0.18185449 0.23755947 -0.26424667
0.1782907 0.09213272 -0.3579078 0.12244278 0.23276898 0.11284852 0.11566153 0.20357355
-0.12482217 0.1470044 -0.10118109 -0.120799795 -0.17895736 -0.3442428 -0.1884945 -0.27464074
0.13548905 -0.2335932 0.17942634 -0.2055786 0.14488485 0.31337193 0.076507956 -0.22409123
-0.081799656 0.23271355 0.3456398 0.34210923 0.03359756 -0.008571753 0.32521042 -0.017466843
-0.35490647 -0.3444543 0.35501638 0.28600332 0.045190006 -0.03445375 -0.33503714 -0.27257305
-0.14657904 -0.30844977 0.0419029 0.2430717 0.24397698 -0.0787687 0.15824279 -0.3120703
-0.17182398 0.20265445 -0.34870073 0.30258846 -0.32996443 0.07135233 0.22975431 -0.13304257
0.23889816 -0.3214641 0.24394384 0.1776489 0.12992384 -0.025096012 -0.2369308 -0.27633414
-0.049728435 0.11189339 0.34355503 0.018754221 0.25840342 0.29919848 -0.12132024 0.05554907
-0.19665016 0.0248622 0.3063748 0.3235031 0.18079244 -0.0605965 0.13720863 -0.18785845
-0.14220804 -0.088035926 -0.19587883 0.26517785 -0.02983411 -0.31501475 -0.07013927 0.21140105
-0.084173344 -0.18588041 -0.18036272 0.0027410875 0.21038479 -0.28211546 -0.14585602 -0.3398655
0.14727452 -0.22944693 0.2113384 0.11745131 0.13265009 -0.31885 0.08869101 -0.10520997
-0.2553219 0.109555446 0.07407516 0.060968116 -0.08325044 0.19494362 0.06563574 0.3060199
-0.3410486 -0.18219306 -0.17747107 -0.3029883 0.33831987 0.06395021 0.24434248 -0.0655708
-0.0025393916 -0.2269662 -0.008261824 -0.05787891 0.25309882 0.1115641 -0.11599612 0.32310507
-0.29218277 0.2909399 -0.17033523 0.024235332 -0.26896548 -0.22210804 0.24809459 -0.037340395
-0.05050409 0.28422627 0.35364613 -0.20754382 -0.20501874 -0.11732505 0.12404895 0.28810295
-0.10618043 0.2438393 -0.29322386 0.18055537 -0.3429562 0.19631353 -0.21618804 0.3449345
0.02045991 -0.22880746 -0.07981797 -0.2968936 0.113946706 -0.22237171 0.14801368 -0.027831137
0.03851223 -0.010670126 0.07010025 -0.0077418424 0.2404755 -0.31801444 -0.06271249 -0.17908761
0.10519701 0.11487457 -0.13641192 -0.308609 0.046885997 0.26150623 -0.0011080989 -0.04696985
0.16124621 -0.21315198 -0.31535366 -0.055251867 -0.15900075 -0.17704637 -0.36045122 0.07293823
0.17659476 0.12028226 -0.16201712 -0.085148126 -0.057243306 0.01563579 -0.20425594 0.16503909
-0.28777385 0.22441164 -0.121111095 -0.036124956 0.19965735 -0.3568833 -0.16988844 0.040820494
-0.30376405 0.022879343 0.35994086 -0.20999302 0.16916339 0.20761654 0.10261184 -0.23911554
0.08705337 0.1424599 -0.122822836 -0.16936274 -0.26386616 0.08308181 -0.046436995 -0.28904477
0.18304262 -0.27674252 0.34786114 0.0975984 -0.23626548 -0.12783733 0.05946361 0.22042337
0.03635735 -0.11849896 -0.033811804 0.10414233 -0.08915507 -0.07962763 -0.32105726 0.30840823
0.109954745 -0.30402917 -0.25374386 0.271297 0.3427725 -0.24947074 0.25385097 0.037864573
00000000: d8b0 423d fab7 4d3e dff1 883e 9001 c2bd
00000010: cc88 933d be1a 693e d315 9d3e 98b6 95be
00000020: 009c c5bd 4226 183e 084d dc3b 8448 8bbe
00000030: 2d52 b1be 1038 3abe ca42 733e 574b 87be
00000040: d691 363e 14b0 bc3d b13f b7be 48c3 fa3d
00000050: fe5a 6e3e 201d e73d f4df ec3d 9675 503e
00000060: c4a2 ffbd 5288 163e 0838 cfbd e265 f7bd
00000070: 9940 37be 9840 b0be b404 41be b69d 8cbe
00000080: a4bd 0a3e 0e33 6fbe 8abb 373e 3283 52be
00000090: b25c 143e 4972 a03e 34b0 9c3d 2c78 65be
000000a0: 9486 a7bd 764c 6e3e b3f7 b03e f128 af3e
000000b0: 989d 093d 8a70 0cbc fb81 a63e a016 8fbc
000000c0: 4db6 b5be 505c b0be b5c4 b53e 076f 923e
000000d0: 2819 393d 601f 0dbd fd89 abbe b28e 8bbe
000000e0: d118 16be 21ed 9dbe 60a2 2b3d cae7 783e
000000f0: 1ad5 793e 7c51 a1bd 660a 223e aec7 9fbe
00000100: a0f2 2fbe a684 4f3e e788 b2be e0ec 9a3e
00000110: 19f1 a8be 2c21 923d b744 6b3e 503c 08be
00000120: b8a1 743e f196 a4be 6acc 793e 98e9 353e
00000130: c10a 053e 2796 cdbc fd9d 72be ab7b 8dbe
00000140: 0bb0 4bbd 5d28 e53d 72e6 af3e 74a2 993c
00000150: 744d 843e 8b30 993e bf76 f8bd 6c87 633d
00000160: a95e 49be d0ab cb3c 28dd 9c3e 33a2 a53e
00000170: a721 393e 0934 78bd 6b80 0c3e f75d 40be
00000180: fc9e 11be 2e4c b4bd 7694 48be 64c5 873e
00000190: aa66 f4bc 9d49 a1be 2da5 8fbd 8479 583e
000001a0: 1363 acbd 6f57 3ebe 01b1 38be d1a3 333b
000001b0: 1c6f 573e 7071 90be 485b 15be da02 aebe
000001c0: 22cf 163e 23f4 6abe 1869 583e 508a f03d
000001d0: 6dd5 073e 4f40 a3be a2a3 b53d 5378 d7bd
000001e0: 8db9 82be 9b5e e03d b8b4 973d b4b9 793d
000001f0: 357f aabd 4d9f 473e 086c 863d a4ae 9c3e
00000200: ec9d aebe d190 3abe faba 35be 4821 9bbe
00000210: 4338 ad3e 54f8 823d ea34 7a3e fc49 86bd
00000220: ec6b 26bb d469 68be 9a5c 07bc 7012 6dbd
00000230: 2b96 813e b87b e43d 608f edbd 076e a53e
00000240: fb98 95be 13f6 943e 5c6c 2ebe 2d89 c63c
00000250: d8b5 89be 4a70 63be 820c 7e3e 3ef2 18bd
00000260: 60dd 4ebd 1b86 913e 1b11 b53e 5e86 54be
00000270: 6ff0 51be 1e48 f0bd 600d fe3d 3b82 933e
00000280: 2075 d9bd 02b1 793e 7021 96be 82e3 383e
00000290: f497 afbe 6a06 493e 6660 5dbe 419b b03e
000002a0: 8b9b a73c 814c 6abe 9b77 a3bd 7002 98be
000002b0: e45c e93d 69b5 63be e690 173e 20fe e3bc
000002c0: 00bf 1d3d c1d1 2ebc b890 8f3d 48af fdbb
000002d0: 363f 763e cad2 a2be 686f 80bd be62 37be
000002e0: 8871 d73d 5c43 eb3d 91af 0bbe 0002 9ebe
000002f0: 880b 403d 25e4 853e a13d 91ba 7563 40bd
00000300: ba1d 253e 8344 5abe 0976 a1be c84f 62bd
00000310: 18d1 22be a54b 35be 108d b8be a460 953d
00000320: 42d5 343e 8c56 f63d d1e7 25be 2462 aebd
00000330: f577 6abd a116 803c 7828 51be 0200 293e
00000340: 1857 93be 2acc 653e 1809 f8bd c3f7 13bd
00000350: fa72 4c3e 68b9 b6be 3cf7 2dbe 6433 273d
00000360: f686 9bbe 766d bb3c 2b4a b83e 6908 57be
00000370: 2b39 2d3e 6e99 543e 2826 d23d b4da 74be
00000380: 0a49 b23d 02e1 113e 8a8a fbbd 6d6d 2dbe
00000390: 7719 87be cc26 aa3d b834 3ebd adfd 93be
000003a0: 866f 3b3e 32b1 8dbe db1a b23e ace1 c73d
000003b0: 94ef 71be cae7 02be 1d90 733d aab6 613e
000003c0: 72eb 143d 95af f2bd 3f7e 0abd 9348 d53d
000003d0: ef96 b6bd d013 a3bd 9e61 a4be afe7 9d3e
000003e0: f42f e13d b6a9 9bbe b7ea 81be 71e7 8a3e
000003f0: e17f af3e 4275 7fbe c1f8 813e e217 1b3d

attention.SSA.query_conv.bias f4 [64]
0.119269 0.12324163 0.09024622 -0.043752857 0.041735277 0.0670212 0.022275958 0.08072321
-0.059796076 -0.0076578627 0.058804166 0.01632865 -0.002470536 -0.017042754 -0.10019701 -0.05789585
0.107256494 0.08237866 -0.08130494 -0.013199127 0.116034575 0.0045678504 -0.07161603 0.020728484
-0.048641086 0.02609701 -0.07502627 -0.09148785 0.05442875 0.07908474 0.024488023 0.011243679
0.06916524 -0.113181055 -0.112707615 -0.03318632 0.09829073 0.08570801 0.07385469 0.09513044
0.069594234 -0.054455936 0.09616249 -0.049304612 0.028034579 -0.034112316 0.037773553 0.056975227
-0.058461323 0.1144622 -0.10605245 0.099690035 0.011877178 0.0856965 0.05638719 -0.0048233354
0.0034773983 0.016039807 0.077920154 -0.107597746 -0.027808733 0.11293633 0.04553153 0.088376686
00000000: 4e43 f43d 1c66 fc3d 03d3 b83d 3236 33bd
00000010: 9cf2 2a3d 6942 893d 127c b63c 3652 a53d
00000020: bbec 74bd cfee fabb a3dc 703d a9c3 853c
00000030: b7e8 21bb 3f9d 8bbc 1734 cdbd 3324 6dbd
00000040: 4ba9 db3d 25b6 a83d 3483 a6bd 2741 58bc
00000050: 89a3 ed3d e8ad 953b 6dab 92bd c8ce a93c
00000060: e03b 47bd 66c9 d53c 5fa7 99bd fb5d bbbd
00000070: aef0 5e3d 2ef7 a13d 1b9b c83c 6837 383c
00000080: 81a6 8d3d 78cb e7bd 40d3 e6bd 61ee 07bd
00000090: a64c c93d ae87 af3d 2141 973d c0d3 c23d
000000a0: 6c87 8e3d 300d 5fbd d7f0 c43d a2f3 49bd
000000b0: c6a8 e53c 5bb9 0bbd 71b8 1a3d db5e 693d
000000c0: 2475 6fbd 286b ea3d 0732 d9bd 4a2a cc3d
000000d0: 7f98 423c a681 af3d 41f6 663d 120d 9ebb
000000e0: 10e5 633b ea65 833c 9a94 9f3d 355c dcbd
000000f0: 24cf e3bc 2a4b e73d 457f 3a3d d6fe b43d

attention.SSA.key_conv.weight f4 [64, 64, 1]
0.034386866 -0.31036597 -0.07942594 0.21087065 -0.26152426 -0.103398554 -0.25101295 0.114470795
0.31697997 -0.058183156 0.31950775 0.007734809 -0.35898358 0.2817017 -0.18467069 -0.099784225
0.03357767 0.017701497 0.2670848 0.24435057 -0.12544805 0.0763832 0.03600536 -0.3164665
-0.049004253 -0.19761954 0.15190597 -0.08833595 -0.29439133 -0.3517743 -0.00055304077 -0.024156785
0.32629496 0.104335755 -0.20185454 0.22963591 0.1915842 0.11915435 -0.23373029 -0.22136816
0.0012854834 -0.2440609 -0.27684185 0.11550129 0.22254024 -0.09142718 0.25101575 -0.15478884
-0.35099053 0.21850565 0.23460384 -0.07957864 0.23761484 -0.15155357 -0.02386221 -0.21032265
-0.032188416 0.15852484 0.3307891 -0.032865334 0.30137575 0.12540527 0.024562167 0.11681523
0.013478211 -0.22033538 0.2921162 0.14646623 -0.27256027 0.32615063 0.27206668 0.07436007
-0.09676169 0.1725587 0.03777057 -0.12393205 0.31972995 -0.35056454 0.30658504 0.3360835
-0.021693798 0.30719933 -0.31512555 -0.23283736 -0.029221935 -0.009175136 -0.26279646 -0.34093142
-0.09029117 0.33504662 0.30031016 0.22529355 0.19455299 -0.15722506 0.19089517 0.14928678
0.2574565 -0.08925998 0.12935743 0.07295233 -0.2537943 0.26342878 -0.18870154 0.33000627
0.017803948 0.01860101 0.04139913 -0.19468936 0.24241033 -0.08383302 0.027360685 -0.028587079
0.11283672 -0.31129286 -0.22758172 0.12608603 -0.24558519 -0.040134247 -0.22760564 -0.005211579
-0.12272811 -0.22341394 0.3216335 -0.2769783 -0.10435772 0.2961183 0.20130512 -0.051569708
0.22993505 -0.25695488 0.35375008 0.34786075 -0.026096927 -0.06674863 -0.10448332 -0.15511078
-0.1413708 -0.21523486 -0.3527908 0.14656308 -0.19341609 -0.08854805 0.08841712 -0.141761
0.19286135 0.36041877 0.20262156 0.31928855 0.21839415 0.08498541 0.08583388 0.3418732
-0.23866431 0.020055441 0.129253 0.049486727 0.099336274 0.08467316 0.23797286 -0.33948296
-0.25599766 -0.23067607 0.26518863 0.22609054 0.3533168 -0.3496525 0.099034876 -0.027638214
-0.27781764 0.06542961 -0.06055224 -0.14892036 0.33858296 -0.34307843 0.021193914 -0.041326042
0.23302785 0.10357529 -0.2809572 0.11000983 -0.19027752 -0.3221852 -0.06603958 0.08451756
0.1850692 -0.33394632 0.036285963 -0.30367094 -0.26357546 0.20686339 0.29251865 0.25395122
0.14383605 0.33341882 0.35666266 -0.24959368 -0.3088047 0.18860582 0.25257197 0.08759016
-0.27550128 0.33329132 0.0843811 -0.0040167766 0.13208434 0.27247033 -0.2300304 0.21452305
-0.11514819 0.038830888 0.17917362 0.050696842 0.19995359 -0.2696553 0.29210702 0.33626708
-0.27561966 0.2844394 -0.1996646 0.046598133 0.11122052 0.0991174 -0.17612295 -0.0027871272
-0.26557744 -0.1154705 -0.052970935 -0.12055356 -0.30690205 0.0023252186 -0.3322046 -0.05796971
-0.30968884 -0.17660877 -0.2757365 0.103944 -0.1176897 0.17079136 -0.05918937 -0.051733464
-0.117586076 0.1471164 -0.12990282 0.006522703 0.0216733 0.31289557 -0.17266761 -0.07021723
0.1450229 -0.34005272 0.35525873 0.23635235 -0.22355483 0.22753355 -0.14562696 -0.29514867
00000000: 3ed9 0c3d 4ae8 9ebe 11aa a2bd 7aee 573e
00000010: 82e6 85be 9fc2 d3bd c584 80be aa6f ea3d
00000020: 334b a23e 7651 6ebd 8596 a33e 4874 fd3b
00000030: b2cc b7be 353b 903e 501a 3dbe ac5b ccbd
00000040: bd88 093d bb02 913c 57bf 883e 0937 7a3e
00000050: 7475 00be cc6e 9c3d 5b7a 133d e607 a2be
00000060: afb8 48bd c75c 4abe 3d8d 1b3e 7be9 b4bd
00000070: 76ba 96be c31b b4be f0f9 10ba 73e4 c5bc
00000080: 2210 a73e fcad d53d f5b2 4ebe ad25 6b3e
00000090: a62e 443e 3207 f43d fe56 6fbe 56ae 62be
000000a0: aa7d a83a 1aeb 79be 37be 8dbe f18b ec3d
000000b0: 97e1 633e 2c3e bbbd 2385 803e f780 1ebe
000000c0: 08b5 b3be f2bf 5f3e fd3b 703e 20fa a2bd
000000d0: 4e51 733e dc30 1bbe ae7a c3bc d25e 57be
000000e0: 00d8 03bd 5654 223e 305d a93e cd9d 06bd
000000f0: ec4d 9a3e 3d6a 003e 9936 c93c d33c ef3d
00000100: b7d3 5c3c 999f 61be 4190 953e 3efb 153e
00000110: 058d 8bbe 37fd a63e 534c 8b3e 184a 983d
00000120: fe2a c6bd 3ab3 303e 50b5 1a3d 16d0 fdbd
00000130: a5b3 a33e 327d b3be b7f8 9c3e 2313 ac3e
00000140: 31b7 b1bc 3b49 9d3e 2358 a1be eb6c 6ebe
00000150: d762 efbc 4f53 16bc 428d 86be 908e aebe
00000160: 94ea b8bd 3b8b ab3e 41c2 993e 5ab3 663e
00000170: e638 473e 9bff 20be 067a 433e a2de 183e
00000180: 57d1 833e f0cd b6bd 4676 043e 0868 953d
00000190: 54f1 81be 23e0 863e fa3a 41be 95f6 a83e
000001a0: 96d9 913c 2561 983c 2292 293d a65c 47be
000001b0: 6a3a 783e a5b0 abbd 8423 e03c 732f eabc
000001c0: f016 e73d c761 9fbe 2f0b 69be b21c 013e
000001d0: af7a 7bbe cf63 24bd 7411 69be e5c5 aabb
000001e0: e058 fbbd a0c6 64be 25ad a43e 1ad0 8dbe
000001f0: 80b9 d5bd d19c 973e ee22 4e3e c23a 53bd
00000200: 1874 6b3e 978f 83be bb1e b53e ce1a b23e
00000210: 39c9 d5bc 81b3 88bd 5afb d5bd 5cd5 1ebe
00000220: 82c3 10be 8766 5cbe ffa0 b4be a214 163e
00000230: de0e 46be ae58 b5bd 0914 b53d cc29 11be
00000240: 727d 453e cf88 b83e 077c 4f3e ca79 a33e
00000250: b7a2 5f3e d50c ae3d acc9 af3d 010a af3e
00000260: 6b64 74be 4f4b a43c e65a 043e 98b2 4a3d
00000270: d170 cb3d 1f69 ad3d 28af 733e b6d0 adbe
00000280: 2012 83be 5936 6cbe cec6 873e 4784 673e
00000290: f1e5 b43e a705 b3be ccd2 ca3d 8969 e2bc
000002a0: 1d3e 8ebe f6ff 853d a005 78bd 947e 18be
000002b0: bf5a ad3e faa7 afbe dc9e ad3c 7f45 29bd
000002c0: da9e 6e3e 481f d43d 9fd9 8fbe d54c e13d
000002d0: 1cd8 42be 75f5 a4be c23f 87bd 8b17 ad3d
000002e0: c882 3d3e 03fb aabe 97a0 143d c27a 9bbe
000002f0: 5df3 86be ffd3 533e 01c5 953e e505 823e
00000300: c249 133e dfb5 aa3e 7d9c b63e 7c95 7fbe
00000310: a61b 9ebe e221 413e 1d51 813e 7862 b33d
00000320: 810e 8dbe 29a5 aa3e 00d0 ac3d 2a9f 83bb
00000330: 1e41 073e 3b81 8b3e 178d 6bbe eeab 5b3e
00000340: d0d2 ebbd 230d 1f3d 4a79 373e 7ea7 4f3d
00000350: a2c0 4c3e 4210 8abe 0d8f 953e 332b ac3e
00000360: 051e 8dbe 0ba2 913e e074 4cbe afdd 3e3d
00000370: 96c7 e33d 10fe ca3d 9359 34be 3ca8 36bb
00000380: c4f9 87be cc7b ecbd 0df8 58bd c9e4 f6bd
00000390: 4422 9dbe b262 183b b916 aabe a671 6dbd
000003a0: 898f 9ebe eed8 34be 562d 8dbe 98e0 d43d
000003b0: 4c07 f1bd eee3 2e3e 8e70 72bd 78e6 53bd
000003c0: f8d0 f0bd aea5 163e 3f05 05be 66bc d53b
000003d0: 348c b13c d933 a03e c7cf 30be 0dce 8fbd
000003e0: e280 143e 641b aebe 79e4 b53e 5a06 723e
000003f0: 8feb 64be 8efe 683e 3c1f 15be ba1d 97be

attention.SSA.key_conv.bias f4 [64]
0.04937973 0.07768133 -0.016932767 -0.106402084 -0.07072812 0.070667215 -0.06709192 -0.0071807816
-0.08178873 -0.013638075 -0.012059735 -0.12303945 -0.07961424 0.112630434 -0.09972112 0.0924764
-0.042950537 -0.12083776 0.042642087 -0.07347746 -0.092897214 -0.045524865 -0.060040567 0.08539389
-0.022136163 0.12271361 -0.035798285 0.10933622 0.0494783 -0.011786162 0.09391117 0.022483826
0.07349881 0.0987656 -0.033942338 0.026310356 0.074674875 -0.098020256 0.08597757 -0.033553757
-0.08557551 -0.036208015 0.113972805 0.109195516 -0.06393539 0.07855934 0.017494118 0.104493394
0.09018218 0.090125345 -0.027581612 0.07535279 0.0015660203 -0.082304515 -0.07128653 0.08481792
-0.10487353 -0.005220615 0.096571535 0.11275861 -0.107391715 0.005311553 0.12453081 0.09078481
00000000: 6642 4a3d 6417 9f3d 96b6 8abc 56e9 d9bd
00000010: e8d9 90bd f9b9 903d 7d67 89bd c34c ebbb
00000020: da80 a7bd 3c72 5fbc 3296 45bc 1bfc fbbd
00000030: ca0c a3bd c9aa e63d 963a ccbd 4464 bd3d
00000040: e7ec 2fbd ca79 f7bd 78a9 2e3d 5a7b 96bd
00000050: e540 bebd 4878 3abd 19ed 75bd fee2 ae3d
00000060: e656 b5bc 4651 fb3d 39a1 12bd abeb df3d
00000070: c2a9 4a3d bf1a 41bc 8054 c03d 0030 b83c
00000080: 8b86 963d 9e45 ca3d 1f07 0bbd d188 d73c
00000090: 24ef 983d d8be c8bd 0215 b03d aa6f 09bd
000000a0: 3742 afbd db4e 14bd 936a e93d e6a1 df3d
000000b0: 8ff0 82bd b8e3 a03d d34f 8f3c a200 d63d
000000c0: 6fb1 b83d a393 b83d d5f2 e1bc 9052 9a3d
000000d0: ec42 cd3a 458f a8bd acfe 91bd 05b5 ad3d
000000e0: efc7 d6bd b111 abbb 4cc7 c53d fced e63d
000000f0: 30f0 dbbd 890c ae3b 020a ff3d 63ed b93d

attention.SSA.value_conv.weight f4 [64, 64, 1]
0.3557614 -0.35817984 -0.29518694 0.007958811 -0.08776732 0.3090847 -0.07166274 -0.35900232
-0.35679018 0.23416129 -0.09640221 -0.058922786 -0.14752741 0.27199563 -0.0048085186 -0.028852234
0.31263742 0.34055647 0.20655845 0.34920666 0.06781354 0.22967869 0.2688189 0.15333237
0.32765198 -0.35869545 0.34169155 -0.33493423 0.15034993 -0.051793564 -0.16010696 0.32369107
-0.20702562 -0.20085046 -0.022600383 -0.17782992 0.082438305 -0.0031241009 -0.20328744 -0.090110764
0.075014554 0.13906477 0.057678502 -0.11145685 0.03149923 -0.09081758 -0.34998515 -0.33385548
0.2892302 -0.25951463 0.14226258 0.30010659 -0.00029252487 0.28737924 -0.11995146 -0.32650918
-0.3472607 -0.13791849 0.14612874 -0.10655048 -0.2856224 -0.348013 0.35978758 -0.14179927
-0.0011422223 -0.1847249 -0.12624231 0.25161552 0.15066816 0.21075572 0.12595181 -0.32053924
-0.12622848 -0.0024502059 0.00843203 -0.093986936 -0.11339746 -0.21402012 -0.25869456 -0.011087638
-0.35543197 0.1684153 0.22497474 0.014516646 0.04856579 0.044653144 -0.32252756 -0.24957493
-0.047491018 0.06527048 -0.16783798 -0.18471076 -0.13738042 0.046859454 0.35831118 0.30917415
-0.24369662 -0.3262887 -0.06762722 0.17184879 -0.1891537 0.11175873 0.26908314 0.12010029
0.19521698 0.18217601 0.28530607 0.12617669 0.23755999 -0.264627 -0.22007267 -0.17146228
0.13318753 -0.21334103 -0.27110633 -0.13462314 0.0575439 -0.28552163 0.12463258 -0.335515
-0.08825018 0.16376466 -0.29451004 0.034209702 0.097890496 -0.2326114 -0.004835087 0.16018945
0.15747368 0.07330161 -0.23673055 -0.17227307 -0.1213812 0.32872462 0.18509309 -0.16836451
-0.25937155 0.080867685 -0.30179656 -0.2981898 -0.06738349 0.27630237 -0.19816464 -0.06764662
-0.1252359 -0.34614038 0.036023706 0.13598222 0.26655313 -0.10702134 0.3246728 0.27413204
0.2515978 -0.2943204 0.2707745 0.33088252 -0.31750467 0.292896 -0.14641985 0.0983809
-0.06279639 0.16715404 0.22552964 -0.30040434 0.33861855 -0.3330539 -0.12404008 0.030707639
0.21863438 0.007830244 -0.16826911 -0.09838312 -0.3012641 0.028694933 -0.25041506 -0.12801132
-0.1639304 0.28431943 0.0809538 -0.14015818 0.15168823 -0.268215 -0.35027122 0.011063502
-0.18515208 0.02822507 -0.28065225 0.3570501 -0.33135143 0.2861288 0.31585118 -0.03142505
0.3214015 0.20826828 -0.21685433 0.30400273 0.33103606 -0.027009498 0.2598424 0.32171127
-0.038472462 0.069034025 -0.12058422 0.01829715 0.35054854 0.07565276 0.058454987 0.17287819
0.27107623 -0.07943654 0.2871468 0.013298643 0.24185368 0.34263948 0.17646635 -0.35447583
-0.022258129 -0.15161067 -0.0413365 0.3043228 -0.2863831 -0.12625273 -0.16313902 0.2914485
-0.28902337 0.20047717 0.16524771 -0.2581007 -0.32914335 -0.05323178 -0.05796113 -0.23670818
-0.28030366 0.14490905 -0.26269802 -0.12381308 0.28732538 0.3567135 0.1516252 0.24898115
0.301226 -0.18863678 -0.18458952 0.017131342 0.32724637 -0.300703 -0.28056046 -0.066233434
-0.1200123 0.09470652 0.2037369 0.29508832 -0.28307974 -0.06592207 0.10013692 -0.2442443
00000000: 5c26 b63e 5963 b7be be22 97be ac65 023c
00000010: 5abf b3bd 5a40 9e3e eac3 92bd 27cf b7be
00000020: 34ad b6be fac7 6f3e 866e c5bd 0559 71bd
00000030: 6d11 17be 0343 8b3e c790 9dbb 855b ecbc
00000040: 0312 a03e 6b5d ae3e 0f84 533e 37cb b23e
00000050: d3e1 8a3d e430 6b3e a2a2 893e 2903 1d3e
00000060: 00c2 a73e eea6 b7be 32f2 ae3e 807c abbe
00000070: 55f5 193e 7d25 54bd 14f3 23be d6ba a53e
00000080: 86fe 53be beab 4dbe 7024 b9bc 0c19 36be
00000090: 6ad5 a83d b7bd 4cbb 952a 50be fe8b b8bd
000000a0: 3ba1 993d ff66 0e3e 4b40 6c3d 7d43 e4bd
000000b0: 5605 013d 91fe b9bd 4131 b3be 1bef aabe
000000c0: fb15 943e 1adf 84be 48ad 113e 92a7 993e
000000d0: 065e 99b9 5f23 933e 1ca9 f5bd 362c a7be
000000e0: 28cc b1be 813a 0dbe c6a2 153e 2337 dabd
000000f0: 193d 92be c32e b2be 1436 b83e d433 11be
00000100: 9fb6 95ba 8628 3dbe aa45 01be c0d3 803e
00000110: c148 1a3e 59d0 573e 83f9 003e b81d a4be
00000120: 0a42 01be a293 20bb 7f26 0a3c 397c c0bd
00000130: ed3c e8bd 1728 5bbe 9d73 84be eda8 35bc
00000140: 2efb b5be 0f75 2c3e c75f 663e 3ad7 6d3c
00000150: ecec 463d 37e6 363d 5522 a5be 9290 7fbe
00000160: f185 42bd 88ac 853d b8dd 2bbe d124 3dbe
00000170: 74ad 0cbe b3ef 3f3d 9074 b73e 134c 9e3e
00000180: 9b8b 79be 500f a7be 2480 8abd 21f9 2f3e
00000190: 82b1 41be c3e1 e43d 44c5 893e 24f7 f53d
000001a0: f6e6 473e 598c 3a3e a313 923e 7634 013e
000001b0: ed42 733e 317d 87be bb5a 61be cf93 2fbe
000001c0: 5062 083e 1276 5abe 73ce 8abe a6da 09be
000001d0: 27b3 6b3d e42f 92be 5e3f ff3d 9fc8 abbe
000001e0: 83bc b4bd ecb1 273e 05ca 96be 791f 0c3d
000001f0: d07a c83d af31 6ebe a66f 9ebb b408 243e
00000200: c840 213e 281f 963d 7e69 72be 5a68 30be
00000210: b596 f8bd 984e a83e 0b89 3d3e bf67 2cbe
00000220: 59cc 84be f59d a53d 1485 9abe 55ac 98be
00000230: 5b00 8abd 8177 8d3e aceb 4abe 508a 8abd
00000240: d73d 00be 5039 b1be 988d 133d ec3e 0b3e
00000250: a779 883e 012e dbbd 833b a63e 095b 8c3e
00000260: 6dd1 803e 2ab1 96be f5a2 8a3e 6f69 a93e
00000270: f98f a2be 77f6 953e 16ef 15be ed7b c93d
00000280: 659b 80bd 6e2a 2b3e 3ef1 663e 99ce 99be
00000290: 695f ad3e 0a86 aabe ba08 febd 968e fb3c
000002a0: b1e1 5f3e 6c4a 003c bd4e 2cbe 177d c9bd
000002b0: 4a3f 9abe a311 eb3c 6736 80be 6615 03be
000002c0: 5fdd 27be 5192 913e 1bcb a53d a085 0fbe
000002d0: 2954 1b3e 7a53 89be c056 b3be b143 353c
000002e0: 8298 3dbe 4338 e73c a7b1 8fbe 45cf b63e
000002f0: e5a6 a9be 797f 923e 3fb7 a13e 8eb7 00bd
00000300: bd8e a43e 4844 553e 100f 5ebe 3fa6 9b3e
00000310: 8f7d a93e 0643 ddbc 100a 853e 57b7 a43e
00000320: 4d95 1dbd b661 8d3d dcf4 f6bd e8e3 953c
00000330: 197b b33e d6ef 9a3d 7f6e 6f3d fb06 313e
00000340: 81ca 8a3e a0af a2bd e804 933e 8de2 593c
00000350: 7ea8 773e 716e af3e 98b3 343e db7d b5be
00000360: ae56 b6bc d43f 1bbe 7650 29bd 33d0 9b3e
00000370: cea0 92be 6548 01be ea0d 27be bd38 953e
00000380: dffa 93be e349 4d3e b236 293e c625 84be
00000390: 7a85 a8be 9109 5abd a668 6dbd a163 72be
000003a0: f683 8fbe 0a63 143e 5b80 86be b691 fdbd
000003b0: 501c 933e 27a3 b63e a343 1b3e eaf4 7e3e
000003c0: 4b3a 9a3e 002a 41be 0905 3dbe 0757 8c3c
000003d0: d68c a73e bef5 99be 9fa5 8fbe 65a5 87bd
000003e0: 02c9 f5bd 7ef5 c13d 68a0 503e d115 973e
000003f0: d4ef 90be 2602 87bd 9614 cd3d 2e1b 7abe

attention.SSA.value_conv.bias f4 [64]
0.014013607 0.05052143 0.06558992 -0.070092484 0.083229415 0.06514635 0.057966724 -0.12175074
0.030032035 -0.012248519 0.118300095 0.0545622 -0.08018082 0.09977139 0.036993116 -0.04012497
0.09261748 -0.06265549 -0.094418555 -0.10160608 -0.059118412 0.031531546 -0.1254339 -0.05166705
0.016805343 -0.046294842 -0.06744293 -0.09381586 -0.0558605 0.10674375 -0.03066854 -0.09435583
0.06187692 -0.015580695 0.12072889 -0.03259639 -0.110457085 0.08069937 -0.0073710056 -0.015195609
0.052343752 -0.04626205 -0.08390544 -0.019880923 0.0013941702 -0.087387286 -0.07767105 0.024495853
0.050025187 -0.08894291 0.046303492 -0.023345849 0.096775085 -0.0297834 0.0904027 -0.11264516
0.07473416 0.08633511 -0.011268209 0.09880142 0.038261756 0.04989592 -0.045889862 -0.050964862
00000000: 5499 653c 8fef 4e3d 0254 863d a68c 8fbd
00000010: 2f74 aa3d 736b 853d 846e 6d3d 7458 f9bd
00000020: be05 f63c 03ae 48bc 5247 f23d 9d7c 5f3d
00000030: d735 a4bd f154 cc3d 1886 173d 155a 24bd
00000040: 3cae bd3d 8651 80bd 845e c1bd d916 d0bd
00000050: 2626 72bd 3927 013d bf71 00be d4a0 53bd
00000060: 5cab 893c a99f 3dbd 851f 8abd 8822 c0bd
00000070: fbcd 64bd 789c da3d 973c fbbc a13d c1bd
00000080: a772 7d3d 2c46 7fbc b540 f73d cb83 05bd
00000090: 5337 e2bd b645 a53d 7a88 f1bb 01f7 78bc
000000a0: 6766 563d 467d 3dbd 9ed6 abbd 51dd a2bc
000000b0: 97bc b63a 1bf8 b2bd 0012 9fbd 87ab c83c
000000c0: 36e7 4c3d b327 b6bd bba8 3d3d cb3f bfbc
000000d0: 0432 c63d 51fc f3bc 0d25 b93d 81b2 e6bd
000000e0: 390e 993d 76d0 b03d 4b9e 38bc 6658 ca3d
000000f0: 5cb8 1c3d aa5f 4c3d 02f7 3bbd 88c0 50bd

attention.SSA.gcn_query.gc1.weight f4 [128, 8]
0.23706436 -0.26873982 0.18002158 0.22769408 -0.22563183 0.19310828 0.14748566 -0.06575377
0.025241483 -0.045406397 -0.27498913 0.24425271 0.24520518 -0.30894393 0.09548525 -0.0025207743
-0.33587876 0.29352602 0.1949768 -0.039394233 0.055317968 0.34276894 -0.24686976 0.16822162
0.17568387 -0.25238243 0.032101236 0.0140939765 -0.2749492 0.30273697 -0.03445536 0.25188807
-0.19182453 -0.20788705 -0.1640482 0.24172962 -0.041373547 -0.2744541 -0.30792218 0.0026785193
-0.027037868 0.023074381 0.1649848 0.22992507 -0.09864995 -0.3031576 -0.082455896 0.34584486
0.21829087 -0.07876305 -0.29974237 0.3071334 -0.27763817 -0.3370626 -0.30796546 0.30413198
0.34649894 -0.13765611 -0.15796785 0.040950835 0.254406 -0.24433026 -0.20223211 -0.08325716
0.19467282 -0.27715865 0.18182969 0.3095966 0.20464252 -0.14004295 0.24193655 -0.06735062
-0.28466424 0.07161478 -0.11683691 -0.02332257 0.20587254 0.28490043 -0.3423168 0.18448673
-0.19566335 0.0540215 0.3141987 0.035850253 0.03469165 -0.3046051 0.2140832 0.33711866
0.32284108 -0.048019018 -0.1807728 0.06765557 0.057379115 0.28380403 -0.19711068 0.22176039
-0.23969933 -0.15778115 0.044082806 -0.31724265 -0.13255881 -0.23145115 -0.23040369 0.1423079
-0.24509697 0.1226425 -0.32258666 0.30800888 -0.3494811 -0.10847548 0.23890163 -0.012305462
0.31119564 -0.15815465 0.28361213 0.009940634 -0.25243282 0.29942155 0.2674076 -0.0883235
0.26256704 0.28329462 0.2925737 0.066640556 -0.013169639 0.042215146 -0.31666815 -0.21789257
0.23256427 -0.24045002 -0.04083422 -0.34365535 0.18063714 0.23603518 0.32161132 0.0314645
-0.26708078 0.022614941 0.33284017 0.07490536 -0.0002706109 -0.28551885 0.15669948 0.34944242
-0.101620115 0.042611625 -0.11239301 -0.1819065 -0.28400108 -0.11727534 -0.29615802 -0.14711405
0.13388367 -0.34647426 0.20446058 0.2076083 -0.24265656 -0.24908906 -0.3087766 0.024337715
-0.30826533 -0.023218626 -0.20513988 0.06285752 -0.18222421 0.30545995 -0.24292886 0.14602527
0.278354 0.16634582 0.31827942 -0.15774848 -0.24202345 0.28685635 -0.26877424 0.07359676
0.2176756 0.13983588 0.033687912 -0.09147743 0.0073860735 -0.076443136 -0.10208432 -0.33598843
0.20612767 -0.017201507 0.242844 0.14831564 0.010508969 0.045534343 -0.34825486 0.14151752
0.16527285 0.18560643 -0.23355025 0.25674945 -0.14684667 0.07789217 -0.0347521 0.061467886
0.24282125 -0.09834633 0.33158675 0.20376825 0.057666827 -0.3275012 0.054730196 0.16091497
0.21384512 -0.14389354 0.3295036 -0.3049777 -0.20912728 0.29094464 0.25386348 -0.08551529
0.1604367 0.12969911 -0.24535829 0.21416742 -0.0034026494 0.19050749 0.29387197 -0.06728626
0.13212745 0.23720343 -0.33882874 -0.14152887 0.31632182 0.16183765 0.06434756 -0.072523534
0.19595473 -0.2741427 -0.3106618 0.29584733 0.091069944 0.21477503 0.33701065 0.32438058
0.16388443 0.18031998 0.040311452 0.2307183 -0.15063724 -0.3449357 0.2510798 -0.14932223
-0.2697747 0.03207711 0.10632177 -0.017246278 0.2276273 0.21752007 -0.081631444 -0.22245179
00000000: 00c1 723e 4498 89be 9457 383e a328 693e
00000010: 080c 67be 2dbe 453e 7b06 173e eaa9 86bd
00000020: 3ac7 ce3c 0ffc 39bd 60cb 8cbe 621d 7a3e
00000030: 1117 7b3e e62d 9ebe c58d c33d 9333 25bb
00000040: 4df8 abbe 0b49 963e 00a8 473e d95b 21bd
00000050: 1895 623d 697f af3e 6dcb 7cbe 4a42 2c3e
00000060: 79e6 333e 4538 81be 967c 033d 6cea 663c
00000070: 24c6 8cbe 5700 9b3e 1021 0dbd 79f7 803e
00000080: a66d 44be 58e0 54be 40fc 27be f887 773e
00000090: 4f77 29bd 3f85 8cbe faa7 9dbe 198a 2f3b
000000a0: 857e ddbc 7c06 bd3c c7f1 283e 7a71 6b3e
000000b0: fc08 cabd 7937 9bbe a3de a8bd 9412 b13e
000000c0: a487 5f3e 864e a1bd d577 99be 9740 9d3e
000000d0: 9726 8ebe 7893 acbe a6ad 9dbe 30b7 9b3e
000000e0: 4f68 b13e b9f5 0cbe 53c2 21be 10bc 273d
000000f0: 8141 823e b631 7abe ef15 4fbe bb82 aabd
00000100: 5058 473e bde7 8dbe 9031 3a3e 7283 9e3e
00000110: cf8d 513e 6b67 0fbe 37be 773e 1fef 89bd
00000120: 83bf 91be c5aa 923d 3148 efbd f90e bfbc
00000130: 40d0 523e 78de 913e 2644 afbe 17ea 3c3e
00000140: f95b 48be a645 5d3d a7de a03e b7d7 123d
00000150: d518 0e3d 33f5 9bbe a038 5b3e d19a ac3e
00000160: 6d4b a53e 97af 44bd 811c 39be 018f 8a3d
00000170: 5d06 6b3d c34e 913e 62d7 49be 2815 633e
00000180: be73 75be 6291 21be 2c90 343d a16d a2be
00000190: 7fbd 07be 8801 6dbe f2ee 6bbe 2ab9 113e
000001a0: b3fa 7abe fe2b fb3d 142a a5be 57b3 9d3e
000001b0: 30ef b2be 6428 debd a1a2 743e d99c 49bc
000001c0: 0955 9f3e 4bf3 21be 9c35 913e 0ade 223c
000001d0: e03e 81be c84d 993e a6e9 883e f3e2 b4bd
000001e0: 306f 863e fe0b 913e 38cc 953e d87a 883d
000001f0: 78c5 57bc cae9 2c3d 5422 a2be 3b1f 5fbe
00000200: 5425 6e3e 8838 76be c841 27bd 98f3 afbe
00000210: f1f8 383e 35b3 713e 3daa a43e ebe0 003d
00000220: d0be 88be f842 b93c 076a aa3e fb67 993d
00000230: c8e0 8db9 872f 92be d475 203e 1eea b23e
00000240: 351e d0bd 8789 2e3d 4e2e e6bd b345 3abe
00000250: 9768 91be 0e2e f0bd 06a2 97be 11a5 16be
00000260: cd18 093e 1365 b1be 1d5e 513e 4597 543e
00000270: f67a 78be 3411 7fbe f717 9ebe e35f c73c
00000280: f4d4 9dbe fd34 bebc 3010 52be 72bb 803d
00000290: fc98 3abe 3f65 9c3e 58c2 78be a687 153e
000002a0: 6a84 8e3e 8f56 2a3e 85f5 a23e d188 21be
000002b0: ffd4 77be d6de 923e c79c 89be e6b9 963d
000002c0: 5ae6 5e3e 2331 0f3e 56fc 093d 8558 bbbd
000002d0: e006 f23b 388e 9cbd 9511 d1bd ad06 acbe
000002e0: 2213 533e 2dea 8cbc 19ac 783e 0ee0 173e
000002f0: d02d 2c3c 3882 3a3d 764e b2be f8e9 103e
00000300: 493d 293e 9d0f 3e3e cc27 6fbe aa74 833e
00000310: f95e 16be ee85 9f3d 3858 0ebd c0c5 7b3d
00000320: 22a6 783e cd69 c9bd bdc5 a93e a0a8 503e
00000330: 0d34 6c3d 3dae a7be c52c 603d e5c6 243e
00000340: 37fa 5a3e d458 13be b2b4 a83e 0926 9cbe
00000350: 7625 56be b2f6 943e 65fa 813e a422 afbd
00000360: 8549 243e d8cf 043e 343f 7bbe b44e 5b3e
00000370: fcfe 5ebb 6514 433e 6376 963e 61cd 89bd
00000380: 6b4c 073e 75e5 723e f67a adbe f2ec 10be
00000390: eff4 a13e c5b8 253e a7c8 833d 3887 94bd
000003a0: 5ba8 483e 6f5c 8cbe 100f 9fbe 4d79 973e
000003b0: e182 ba3d fced 5b3e a98c ac3e 3615 a63e
000003c0: 52d1 273e cda5 383e 9f1d 253d 6b41 6c3e
000003d0: a640 1abe 699b b0be 888d 803e ede7 18be
000003e0: e91f 8abe 4a63 033d 3abf d93d 1148 8dbc
000003f0: 2217 693e 95bd 5e3e 632e a7bd 67ca 63be

attention.SSA.gcn_query.gc1.bias f4 [8]
0.21068475 0.15509918 0.30461586 0.30387494 0.0040945685 0.038192466 0.28457668 -0.2508511
00000000: bebd 573e 52d2 1e3e 9cf6 9b3e 7f95 9b3e
00000010: bb2b 863b b46f 1c3d 09b4 913e 8e6f 80be

attention.SSA.gcn_query.gc2.weight f4 [8, 128]
-0.037449338 -0.036841888 0.028833473 0.042316657 0.029575253 -0.01281725 0.054863695 0.056145027
0.01573993 0.011788428 0.045506313 0.030769214 -0.0211238 -0.008340666 -0.009969739 0.032205775
0.025084166 0.08074373 -0.034804102 -0.058127612 -0.030187733 -0.01881584 -0.019568969 0.08826529
0.038749523 0.037889794 -0.035024796 -0.068977974 -0.013706054 -0.033865195 -0.08243966 -0.04868557
0.05646794 0.031589348 0.07677434 -0.028291045 -0.08026211 0.029935703 -0.049937885 -0.035684288
0.0150646465 0.044440597 -0.05981517 -0.06895054 0.048564907 -0.054098614 0.045640163 -0.054196287
0.06825371 -0.061514013 0.03096299 -0.014140151 0.064858735 -0.00696014 0.012532821 0.04155468
-0.066304795 8.782572e-05 -0.04368591 -0.03580673 0.020666974 -0.025414577 -0.027580908 -0.08560803
-0.06785945 -0.042104106 -0.011659682 -0.03925734 -0.06125975 0.045818735 0.085909225 -0.035022613
-0.028060447 -0.055173542 0.064925864 -0.002913859 -0.054259278 -0.034523927 0.001829078 0.073553555
0.0726396 -0.084228225 0.0690944 -0.019021383 -0.028211884 0.044181295 -0.07991424 0.07231655
0.0052545285 0.033547238 -0.026251137 -0.07847265 0.08451593 0.036330238 -0.052226618 -0.02337668
-0.0861467 0.04843995 -0.066655725 0.05725056 0.08872742 -0.014874713 -0.058242306 -0.08501249
-0.05792591 0.03164078 0.0054074605 0.0054493933 0.028880816 0.087778285 0.04783314 -0.06628284
0.044034034 -0.08574206 -0.0009576445 0.019205747 -0.024321657 -0.06826885 0.039565217 -0.07112189
-0.07296185 0.068929635 -0.00018490161 -0.06712378 -0.016988127 0.056597035 0.02238433 -0.0518565
0.0036436662 0.053448536 0.035367664 -0.032647286 -0.0007084206 0.07513128 0.052885298 0.0111972485
-0.028453795 0.008794188 -0.06528415 0.0837836 0.07249391 -0.0300526 -0.07389252 0.08533615
0.024655692 -0.032686204 -0.07093668 0.015831077 0.070890754 0.026301747 -0.0623398 0.052172605
-0.04894497 -0.04254503 -0.0511291 0.046115667 -0.072796606 0.051392943 0.06774428 -0.01842807
0.047974475 0.06933259 0.038858183 0.016189978 0.026160175 -0.0495243 -0.036005396 0.019633273
-0.044838518 -0.0697895 0.088550955 -0.007115901 0.043466754 0.07618502 -0.05291811 -0.064547405
-0.022348413 -0.059414186 -0.014194478 0.030755604 -0.017015228 -0.014081492 -0.024536641 0.07920172
0.020908589 -0.042978216 0.035733823 -0.009121294 0.03490428 0.071701415 0.05559967 -0.07162727
0.008618027 0.05223844 -0.025208432 0.029917814 -0.009162903 -0.04637664 0.01544771 -0.059230994
-0.06496677 -0.06662859 -0.05865733 -0.031336863 -0.024275007 0.021847034 -0.0057728468 0.021552097
-0.07886462 -0.002105829 -0.032887604 -0.023504127 -0.038551126 0.055393007 -0.013601336 -0.06250605
-0.024941824 0.021708291 -0.07069376 0.0001787902 -0.082175925 -0.06860874 0.08357912 -0.06451949
-0.04672918 0.02696696 0.0776136 0.03275095 -0.06094799 0.06450176 0.06334113 -0.056810237
-0.0021539007 0.019278787 -0.026197297 -0.042983066 -0.06747526 0.0700711 -0.025642162 0.0523115
0.07046717 0.03878869 0.022833614 0.050241467 0.043823928 0.088992715 -0.08103884 0.07158949
0.02736072 -0.052264616 -0.004064577 0.01534571 -0.031975716 -0.021531533 -0.06963857 0.051159486
00000000: 7a64 19bd 85e7 16bd 2d34 ec3c 3b54 2d3d
00000010: cd47 f23c 71ff 51bc c1b8 603d 54f8 653d
00000020: 07f1 803c 4024 413c d464 3a3d b80f fc3c
00000030: d20b adbc 4aa7 08bc 1e58 23bc 34ea 033d
00000040: 4f7d cd3c f85c a53d bf8e 0ebd 3817 6ebd
00000050: 444c f7bc ad23 9abc 1a4f a0bc 6fc4 b43d
00000060: d2b7 1e3d 5432 1b3d 2976 0fbd 5344 8dbd
00000070: 5b8f 60bc 3bb6 0abd 20d6 a8bd 856a 47bd
00000080: ed4a 673d d563 013d dd3b 9d3d 9fc2 e7bc
00000090: 7660 a4bd b83b f53c ab8b 4cbd b029 12bd
000000a0: b5d1 763c 5807 363d c000 75bd f135 8dbd
000000b0: ffeb 463d 8296 5dbd 2ef1 3a3d edfc 5dbd
000000c0: 9ac8 8b3d 1ef6 7bbd 19a6 fd3c 18ac 67bc
000000d0: a8d4 843d e311 e4bb 7656 4d3c 3d35 2a3d
000000e0: cfca 87bd 132f b838 ffef 32bd 14aa 12bd
000000f0: c94d a93c 3b32 d0bc 5bf1 e1bc 4353 afbd
00000100: e5f9 8abd 5b75 2cbd 4008 3fbc 4ecc 20bd
00000110: 81eb 7abd 6dac 3b3d 2df1 af3d df73 0fbd
00000120: 06df e5bc a7fd 61bd daf7 843d 71f6 3ebb
00000130: fa3e 5ebd f668 0dbd acbd ef3a 3fa3 963d
00000140: 12c4 943d d97f acbd 5d81 8d3d bbd2 9bbc
00000150: 9c1c e7bc 72f7 343d 14aa a3bd b31a 943d
00000160: 2e2e ac3b d468 093d a00c d7bc 45b6 a0bd
00000170: b016 ad3d 04cf 143d 94eb 55bd 7480 bfbc
00000180: ae6d b0bd f868 463d cc82 88bd 907f 6a3d
00000190: b9b6 b53d 11b5 73bc 7c8f 6ebd 071b aebd
000001a0: b843 6dbd c399 013d 1131 b13b d390 b23b
000001b0: 7697 ec3c 1ac5 b33d afec 433d 4cbf 87bd
000001c0: 085d 343d 8899 afbd 6f0a 7bba 5f55 9d3c
000001d0: 363e c7bc 8ad0 8bbd 230f 223d 5aa8 91bd
000001e0: 066d 95bd fb2a 8d3d 26e2 41b9 3178 89bd
000001f0: af2a 8bbc 4bd2 673d 585f b73c 7b67 54bd
00000200: 93ca 6e3b daec 5a3d afdd 103d 29b9 05bd
00000210: 4db5 39ba 6ede 993d 419e 583d aa74 373c
00000220: ef17 e9bc 7f15 103c b2b3 85bd bc96 ab3d
00000230: b077 943d df30 f6bc f654 97bd b8c4 ae3d
00000240: bcfa c93c f8e1 05bd 4047 91bd 2db0 813c
00000250: 2c2f 913d c376 d73c 0558 7fbd f1b2 553d
00000260: 857a 48bd b343 2ebd bf6c 51bd c8e3 3c3d
00000270: 6316 95bd 6881 523d 83bd 8a3d 77f6 96bc
00000280: e280 443d 3ffe 8d3d c229 1f3d d8a0 843c
00000290: dd4d d63c fed9 4abd 657a 13bd f5d5 a03c
000002a0: 98a8 37bd cced 8ebd 345a b53d 812c e9bb
000002b0: 320a 323d e406 9c3d a9c0 58bd 6e31 84bd
000002c0: 0514 b7bc 4a5c 73bd f58f 68bc 2df3 fb3c
000002d0: 8563 8bbc 0fb6 66bc 1101 c9bc 8334 a23d
000002e0: 7d48 ab3c ed09 30bd a15d 123d 7b71 15bc
000002f0: caf7 0e3d 31d8 923d 7bbc 633d 51b1 92bd
00000300: a032 0d3c f9f7 553d ea81 cebc 3416 f53c
00000310: 0020 16bc 6ff5 3dbd 6418 7d3c 339c 72bd
00000320: 4c0d 85bd 9274 88bd ab42 70bd 155b 00bd
00000330: 61dc c6bc 8df8 b23c 262a bdbb 068e b03c
00000340: c683 a1bd f301 0abb 27b5 06bd ba8b c0bc
00000350: c9e7 1dbd c7e3 623d 23d8 5ebc 2c03 80bd
00000360: cc52 ccbc 96d5 b13c e4c7 90bd a179 3b39
00000370: da4b a8bd bd82 8cbd 882b ab3d cb22 84bd
00000380: 1967 3fbd d0e9 dc3c e1f3 9e3d dc25 063d
00000390: 99a4 79bd 8019 843d ffb8 813d dab1 68bd
000003a0: 7528 0dbb 8cee 9d3c b79b d6bc 030f 30bd
000003b0: 7830 8abd 7081 8f3d 830f d2bc 9544 563d
000003c0: 1751 903d e4e0 1e3d 8f0d bb3c ffc9 4d3d
000003d0: b880 333d d041 b63d b1f7 a5bd 839d 923d
000003e0: 9723 e03c 6c13 56bd 2530 85bb 936c 7b3c
000003f0: f8f8 02bd e662 b0bc ab9e 8ebd 9c8c 513d
